best_model_UNet.pth (torch, 476279 bytes, 26 tensors)

conv1.conv.0.weight f4 [16, 1, 3, 3]
0.11039504 0.122418195 0.3475033 0.046163764 -0.049330756 0.26598802 0.043424644 -0.06444934
-0.24318555 0.016810877 -0.31940132 -0.24057697 -0.23508486 0.15286045 0.23711374 0.035392363
0.26494807 0.004403645 0.10308136 -0.26044664 -0.1755407 0.40941212 0.19772165 0.30500406
0.11820994 0.12638578 -0.103882276 -0.29634067 0.24418452 -0.08580112 -0.24639584 0.19960241
-0.2241545 0.28228956 0.24333562 -0.014682852 -0.0626551 -0.2421322 -0.15258336 -0.12495787
0.23676379 0.13082688 -0.270893 0.08153268 0.30083662 -0.15063022 0.2998032 0.26306257
0.19643871 -0.033076916 -0.08333516 0.24608809 0.34085873 0.26678956 -0.15838404 -0.1397922
-0.17367493 0.10247482 0.08073685 0.12732403 0.3518219 -0.1926983 -0.099371545 -0.022009531
-0.2784243 -0.22538921 -0.043915194 -0.13129535 0.33425283 -0.027848423 0.083207205 -0.052022357
0.25411618 -0.12979612 0.23027177 -0.23680995 0.09943622 0.07174208 -0.2584204 -0.072219424
-0.13332094 -0.15518093 -0.0843765 -0.14614335 0.107132345 0.25790617 -0.15845299 -0.16715208
0.025346663 -0.21172501 -0.21614927 0.23025031 0.06698049 0.004258618 -0.14386252 0.17780697
-0.2841143 -0.068799324 0.296504 -0.22548482 0.338903 0.2412337 0.09074509 0.052467495
-0.057534225 -0.31428078 -0.11816151 -0.2983074 0.26066312 -0.15018478 -0.10944521 0.23182186
0.15150382 0.025486888 0.013297776 -0.17460434 -0.3022224 0.35524565 -0.04366242 -0.0064383964
0.3280401 -0.0558152 -0.29840285 -0.12492811 -0.2437455 0.03143297 -0.08819344 0.0807973
-0.054569732 0.36487877 -0.2886217 -0.25944942 0.18243441 -0.047991373 -0.24570483 -0.25864378
0.34294623 0.22622016 -0.22229087 0.018085452 0.31220677 -0.101334356 -0.19562456 -0.27677536
00000000: cb16 e23d 64b6 fa3d f4eb b13e 3716 3d3d
00000010: 0c0f 4abd 952f 883e 0ade 313d 04fe 83bd
00000020: a205 79be f7b6 893c 9288 a3be cf59 76be
00000030: 16ba 70be 7387 1c3e f2cd 723e 95f7 103d
00000040: 46a7 873e 744c 903b 521c d33d 4359 85be
00000050: f1c0 33be 779e d13e 8b77 4a3e 7e29 9c3e
00000060: 0e18 f23d 466b 013e 3bc0 d4bd f7b9 97be
00000070: 820b 7a3e 7fb8 afbd 314f 7cbe 9364 4c3e
00000080: c288 65be 4288 903e f92c 793e 5890 70bc
00000090: 5151 80bd 81f1 77be d03e 1cbe e9e9 ffbd
000000a0: 3572 723e 7bf7 053e 7db2 8abe 9bfa a63d
000000b0: 4207 9a3e cf3e 1abe ce7f 993e 23b0 863e
000000c0: 3b27 493e a97b 07bd a0ab aabd 84fe 7b3e
000000d0: 0985 ae3e a498 883e 6d2f 22be b025 0fbe
000000e0: d7d7 31be 52de d13d 5d59 a53d 3b61 023e
000000f0: 0022 b43e b452 45be 4f83 cbbd 554d b4bc
00000100: a18d 8ebe 6ecc 66be 6be0 33bd 4a72 06be
00000110: 3023 ab3e 6022 e4bc 8a68 aa3d 6515 55bd
00000120: 841b 823e 46e9 04be 5dcc 6b3e 4f7e 72be
00000130: 38a5 cb3d 83ed 923d ae4f 84be c7e7 93bd
00000140: 4985 08be c0e7 1ebe 96cd acbd 9aa6 15be
00000150: 3468 db3d 470c 843e 8041 22be ea29 2bbe
00000160: cea3 cf3c 71ce 58be 3c56 5dbe bdc6 6b3e
00000170: 112d 893d e18b 8b3b b250 13be 0813 363e
00000180: 6e77 91be a9e6 8cbd 5fcf 973e 7ee5 66be
00000190: b284 ad3e f805 773e 90d8 b93d 28e8 563d
000001a0: 02a9 6bbd 69e9 a0be a9fe f1bd bfbb 98be
000001b0: a375 853e 0aca 19be cf24 e0bd b662 6d3e
000001c0: d123 1b3e e1c9 d03c eade 593c 7bcb 32be
000001d0: e5bc 9abe c2e2 b53e 5ed7 32bd 2ff9 d2bb
000001e0: dff4 a73e 7b9e 64bd 42c8 98be 4fda ffbd
000001f0: 6c98 79be dcbf 003d c39e b4bd 0e79 a53d
00000200: 8384 5fbd 64d1 ba3e 39c6 93be 8ed6 84be
00000210: 16d0 3a3e 9a92 44bd 0c9a 7bbe f56c 84be
00000220: a696 af3e 42a6 673e 38a0 63be f127 943c
00000230: 91d9 9f3e 6388 cfbd ce51 48be 80b5 8dbe

conv1.conv.0.bias f4 [16]
0.48143318 0.49534848 0.52714217 -0.102756694 -0.017234445 0.30548546 0.1496199 -0.60972345
0.35907692 -0.5613937 0.8710123 -0.23845848 -0.105291836 -0.020025445 0.08333853 -0.41795072
00000000: 697e f63e 519e fd3e caf2 063f 1a72 d2bd
00000010: 402f 8dbc 9768 9c3e f635 193e d616 1cbf
00000020: eed8 b73e 7fb7 0fbf a9fa 5e3f 762e 74be
00000030: 3fa3 d7bd 670c a4bc 64ad aa3d a3fd d5be

conv1.conv.2.weight f4 [16, 16, 3, 3]
0.08453322 0.014429474 0.008055484 0.10225209 0.047361225 0.05049096 -0.026083792 0.058135968
0.07218854 0.046660095 0.063691474 0.011788835 -0.029301204 0.019475 0.050964825 0.03178432
0.044544276 -0.099544585 0.12659964 0.07549131 0.022482423 0.03964668 0.08816195 -0.050256077
0.06473497 0.12185379 0.086740464 -0.0244443 0.08342474 -0.030747965 -0.02476426 -0.045554116
0.06811171 0.07816785 0.0859294 -0.03224836 -0.00068223936 0.053533167 0.042614188 -0.02179406
-0.0061318856 0.03399097 0.016530663 -0.016395867 -0.061626412 0.05424079 0.0074387453 0.05895989
0.006474263 0.03590924 -0.0013535083 0.093158655 0.07676725 0.040966507 -0.047853068 -0.0066944696
-0.032278255 -0.080826275 -0.032043003 0.004796117 -0.022351103 0.020971341 0.08891746 -0.044991743
0.03037234 -0.015910905 -0.09597932 -0.03978148 -0.06354894 -0.08657299 -0.06513815 -0.07097303
0.029964756 0.03942129 -0.04232466 0.03831077 -0.031562883 -0.105104156 -0.0022146115 -0.03769228
0.010353515 -0.065041915 -0.12523767 -0.113478646 -0.052168645 -0.10924003 -0.031843673 -0.09858389
-0.17793734 -0.07387496 0.062167186 0.04010637 -0.034073193 -0.054952238 0.025625862 -0.040273108
0.028484922 0.086757764 -0.045317866 0.03229469 0.07829985 -0.005474719 -0.02830935 -0.0648539
-0.02031798 0.098808 0.011820346 -0.010388496 -0.015257508 0.09732408 0.07437937 -0.0173638
-0.026384592 0.051941097 -0.003452787 0.022957256 -0.01278076 0.04040201 0.014676164 -0.05035475
0.10762018 0.038892597 0.06659272 0.09090361 -0.011301262 0.023073316 -0.103010975 0.040351328
0.04748828 0.005443654 -0.10726006 0.031254683 0.036614824 0.037906982 -0.03478921 -0.008668751
0.0062753954 0.023589449 -0.083498284 -0.075915225 0.04199731 0.06404973 0.011971818 -0.009918007
0.027272584 -0.0063245255 0.05114486 0.09516522 -0.0654689 0.054260064 0.08926867 -0.054946177
-0.044323977 -0.032601394 -0.0128786415 0.078996 -0.07218166 -0.0058224727 0.07732421 0.025974406
-0.0096851345 0.09691324 0.006356508 -0.09903192 0.018228378 0.07230688 0.02336979 -0.019858556
0.06439421 -0.0848956 -0.08310263 0.051356915 0.106412016 0.06405105 0.019874493 0.04754469
0.10011904 0.056652274 0.087279506 0.08304746 -0.05651427 0.067571305 -0.10963042 -0.048270352
0.095069095 0.037665587 -0.09547587 0.040900983 -0.0028635592 -0.07395945 0.0141972 0.029420752
-0.071523465 0.012013313 0.017816147 -0.0066723125 -0.056770533 0.04036707 0.025454188 0.047299363
-0.017774664 -0.04756993 0.033170532 0.024917362 0.05579991 0.06523607 -0.036415573 -0.017590167
-0.016247243 0.024190959 -0.044827994 -0.05394382 -0.08717542 -0.06622998 -0.06084832 0.0317589
-0.051320467 -0.017360097 -0.09548676 0.0046861772 -0.031329766 -0.09052252 -0.023965612 0.081089444
-0.018916434 -0.009151212 -0.05468132 -0.030651258 0.0043058177 0.031092308 -0.094665796 -0.0011440043
-0.0013851239 -0.11172334 -0.021829039 0.008349278 0.06667068 0.0032992077 0.037578914 0.06425789
0.03415298 -0.048570763 0.041160066 -0.012213174 0.0380325 0.006111576 0.0593016 -0.02666169
0.010296264 0.043599103 -0.05617383 -0.0038982192 0.07867351 -0.023142403 0.04597314 0.044999488
00000000: c11f ad3d 9a69 6c3c 26fb 033c 8b69 d13d
00000010: d8fd 413d 9ccf 4e3d adad d5bc fb1f 6e3d
00000020: 96d7 933d a81e 3f3d ad70 823d f525 413c
00000030: 1409 f0bc 098a 9f3c 7ec0 503d 4630 023d
00000040: 0f74 363d 08de cbbd 56a3 013e 309b 9a3d
00000050: 0f2d b83c 8f64 223d 418e b43d 51d9 4dbd
00000060: c593 843d 7b8e f93d fca4 b13d 6a3f c8bc
00000070: 97da aa3d 28e3 fbbc 6bde cabc f496 3abd
00000080: 277e 8b3d 7716 a03d c1fb af3d db16 04bd
00000090: 4fd8 32ba 9845 5b3d 378c 2e3d 7589 b2bc
000000a0: fced c8bb 1e3a 0b3d 506b 873c a050 86bc
000000b0: fa6b 7cbd 972b 5e3d b8c0 f33b ed7f 713d
000000c0: 0e26 d43b 9115 133d 3468 b1ba f7c9 be3d
000000d0: 2638 9d3d 7fcc 273d 9401 44bd 485d dbbb
000000e0: 3436 04bd 3f88 a5bd 863f 03bd bf28 9d3b
000000f0: a919 b7bc 17cc ab3c 5b1a b63d 4349 38bd
00000100: 6acf f83c 9657 82bc ce90 c4bd e8f1 22bd
00000110: f225 82bd 2e4d b1bd 2667 85bd 4f5a 91bd
00000120: a678 f53c 3878 213d 9f5c 2dbd c1eb 1c3d
00000130: 1548 01bd d940 d7bd 0423 11bb 3863 1abd
00000140: caa1 293c b234 85bd 4e3e 00be 7e67 e8bd
00000150: caae 55bd 3db9 dfbd 836e 02bd 5ae6 c9bd
00000160: 3535 36be c14b 97bd 05a3 7e3d 9446 243d
00000170: 5590 0bbd 9915 61bd 54ed d13c 6af5 24bd
00000180: 3659 e93c 0eae b13d 3a9f 39bd 7047 043d
00000190: ac5b a03d 4665 b3bb 03e9 e7bc 1fd2 84bd
000001a0: e471 a6bc d95b ca3d 20aa 413c 8334 2abc
000001b0: a0fa 79bc d951 c73d 3654 983d 873e 8ebc
000001c0: 8024 d8bc 30c0 543d 2748 62bb db10 bc3c
000001d0: 6566 51bc 947c 253d 4b74 703c c840 4ebd
000001e0: f867 dc3d d84d 1f3d c461 883d ac2b ba3d
000001f0: ee28 39bc 4004 bd3c 6bf7 d2bd 6f47 253d
00000200: 1283 423d ae60 b23b 2aab dbbd e904 003d
00000210: 6df9 153d 5a44 1b3d 217f 0ebd 6107 0ebc
00000220: d5a1 cd3b a93e c13c 2601 abbd 7179 9bbd
00000230: 5f05 2c3d 812c 833d 7225 443c 237f 22bc
00000240: c16a df3c f73d cfbb 467d 513d fce5 c23d
00000250: 8f14 86bd cd3f 5e3d 7ed2 b63d 3e0f 61bd
00000260: 0f8d 35bd 0a89 05bd f000 53bc a8c8 a13d
00000270: fad3 93bd 71ca bebb 285c 9e3d 47c8 d43c
00000280: 66ae 1ebc 737a c63d 414a d03b 3fd1 cabd
00000290: ae53 953c a115 943d 0072 bf3c 69ae a2bc
000002a0: 1de1 833d bfdd adbd b631 aabd a15b 523d
000002b0: 8bee d93d 322d 833d d5cf a23c 39be 423d
000002c0: 360b cd3d 370c 683d 99bf b23d c914 aa3d
000002d0: 827b 67bd d362 8a3d ea85 e0bd 22b7 45bd
000002e0: 96b3 c23d 3b47 1a3d da88 c3bd ca87 273d
000002f0: 8daa 3bbb 0d78 97bd 5f9b 683c ca03 f13c
00000300: e57a 92bd 7dd3 443c 2bf3 913c 6aa3 dabb
00000310: 3888 68bd f157 253d 4d85 d03c fabc 413d
00000320: 2c9c 91bc b0d8 42bd d3dd 073d 7f1f cc3c
00000330: 728e 643d 7d9a 853d 7f28 15bd 4119 90bc
00000340: f018 85bc 1e2c c63c 8f9d 37bd 32f4 5cbd
00000350: 0789 b2bd 95a3 87bd 173c 79bd 9f15 023d
00000360: 6935 52bd c336 8ebc 908e c3bd 818e 993b
00000370: a453 00bd df63 b9bd 8853 c4bc 3912 a63d
00000380: a3f6 9abc f7ee 15bc 85f9 5fbd 5918 fbbc
00000390: d117 8d3b 4cb5 fe3c 24e0 c1bd 6af2 95ba
000003a0: 0c8d b5ba 35cf e4bd d0d2 b2bc 69cb 083c
000003b0: a38a 883d 8537 583b 59ec 193d a499 833d
000003c0: ffe3 0b3d 23f2 46bd 7597 283d c419 48bc
000003d0: f7c7 1b3d 9e43 c83b 3ce6 723d 9e69 dabc
000003e0: a9b1 283c f994 323d 8816 66bd 4479 7fbb
000003f0: 941f a13d 2395 bdbc 554e 3c3d 6251 383d

conv1.conv.2.bias f4 [16]
0.5301714 0.45567396 0.26898363 -0.20975739 0.57719886 -0.2269474 -0.58462787 -0.3690438
0.121806435 -0.07789643 -0.15424538 -0.07893593 0.036331158 -0.30930704 -0.05168301 -0.45150104
00000000: 50b9 073f 194e e93e 39b8 893e a4ca 56be
00000010: 4ec3 133f e664 68be 2caa 15bf 4ff3 bcbe
00000020: a775 f93d 2a88 9fbd 80f2 1dbe 29a9 a1bd
00000030: fbcf 143d 7e5d 9ebe 90b1 53bd 252b e7be

conv2.conv.0.weight f4 [32, 16, 3, 3]
-0.06221454 0.11071323 0.11570013 -0.014805918 -0.04439539 0.043043144 -0.07780124 -0.0642287
0.092196636 -0.047679015 0.14909764 -0.029113118 0.060476374 0.027553426 -0.07414237 0.01576629
-0.0583237 -0.12461503 -0.084627144 -0.0480965 0.13144441 0.10872244 0.055294435 0.042228237
-0.08467186 0.13860628 -0.025694199 0.06728215 -0.08072087 0.010325921 0.010749364 -0.07505445
0.012761474 -0.024594843 -0.05510829 -0.057947524 0.017194944 -0.0072047035 0.011017133 -0.05583382
-0.0058214488 -0.06861314 0.0002789646 0.00031787175 0.015421586 0.053233813 0.06574251 0.06476252
-0.050235372 0.026610294 -0.012830231 -0.029748684 -0.035878662 0.043896902 0.0053988523 0.09366037
-0.030227102 -0.058013253 0.0050424985 -0.0775065 -0.079846166 0.042752303 0.025123542 0.08542789
0.04249422 -0.06728781 0.041124962 -0.011431374 -0.0058279163 0.0053713 -0.03196071 0.015984196
-0.08031943 0.011436759 -0.18637328 0.03246449 0.060233187 -0.026248164 -0.043772426 0.0323909
-0.187581 0.029786821 -0.077784956 -0.09372396 -0.06968195 0.023339946 -0.031746607 -0.03196128
0.064279586 0.053131774 -0.08439357 0.062440477 -0.030760476 -0.0010528982 0.02998921 -0.11318837
0.069437094 -0.10696885 -0.09225647 -0.015728187 -0.0039660945 -0.0017697889 0.026204942 0.015193488
-0.012109852 -0.013112779 -0.076442234 0.012582004 -0.036430705 0.045431502 -0.08583635 0.018695133
-0.06545202 -0.051162478 -0.10393905 -0.19934458 -0.12020755 -0.094080284 -0.07871313 0.015110245
-0.17058666 0.109889194 -0.07997659 0.058140833 -0.003285347 -0.09652873 -0.008033452 0.07030066
-8.484402e-06 -0.03640637 0.046911575 0.038967833 0.007996564 0.041120134 -0.0778601 -0.03992711
-0.08775349 -0.098446846 0.016427783 0.00025924563 0.012058231 0.06103029 0.072233185 -0.007182207
-0.10139499 -0.0846161 -0.07926314 -0.00042686544 -0.009890362 -0.100836 -0.14116643 -0.13138348
-0.016600048 0.026681602 0.04312801 0.115902066 -0.02803098 -0.013154436 0.026301699 -0.1027538
-0.022906806 0.15995046 -0.058946975 -0.08070492 -0.032000743 0.08294386 -0.08948315 0.094096065
0.07093256 -0.09745979 0.0071096597 -0.025536707 0.05752695 0.13039263 0.055603288 -0.008927986
0.08637193 -0.11434883 -0.030719014 -0.00925432 -0.056772623 -0.058081668 -0.060406167 0.025022822
-0.01054044 -0.055260878 0.12434036 -0.025377734 -0.08660739 -0.037625536 0.041997842 0.025531894
-0.035486422 0.059089404 0.0041679507 0.057192873 -0.072875164 0.055253346 0.053754713 0.07196348
0.08970885 0.07034684 0.04432632 -0.019408295 -0.034287363 -0.0269796 -0.048528843 -0.017497847
-0.020650957 0.030710781 0.065507226 -0.04150929 -0.006604212 -0.024825051 -0.08826823 -0.03423475
-0.07288659 -0.005351442 -0.02430974 -0.055177607 0.008271514 -0.10966222 0.069645226 -0.041127264
0.025763718 -0.049582984 -0.031534694 -0.0002488932 -0.10853569 0.04448587 -0.004957738 0.031008251
0.07500016 -0.06943955 0.07197442 0.040281657 0.038033135 0.0043541803 -0.008692698 -0.00042433062
-0.07487052 0.054967448 0.014860208 0.030038845 0.0034454993 0.015617206 0.05412637 0.08210811
0.022333551 -0.01861672 -0.049260005 -0.034657598 0.09481536 -0.040599126 0.094122015 -0.077451244
00000000: acd4 7ebd 9ebd e23d 31f4 ec3d 8594 72bc
00000010: f1d7 35bd 024e 303d 4256 9fbd 568a 83bd
00000020: 97d1 bc3d 124b 43bd 0dad 183e a27e eebc
00000030: 13b6 773d b9b7 e13c f4d7 97bd 4e28 813c
00000040: d5e4 6ebd 2a36 ffbd ff50 adbd d600 45bd
00000050: 5d99 063e dfa9 de3d 6b7c 623d 84f7 2c3d
00000060: 7168 adbd ceee 0d3e a47c d2bc 39cb 893d
00000070: fc50 a5bd 0d2e 293c 1a1e 303c 26b6 99bd
00000080: 8015 513c 207b c9bc 3bb9 61bd 625a 6dbd
00000090: 69dc 8c3c 6f15 ecbb 3481 343c 01b2 64bd
000000a0: dac1 bebb 0c85 8cbd ff41 9239 06a8 a639
000000b0: d2aa 7c3c b30b 5a3d 02a4 863d 36a2 843d
000000c0: 9bc3 4dbd d5fd d93c e435 52bc 83b3 f3bc
000000d0: 81f5 12bd 3dcd 333d dbe8 b03b 02d1 bf3d
000000e0: d49e f7bc 4e9f 6dbd 8b3b a53b babb 9ebd
000000f0: 6386 a3bd 0a1d 2f3d e3cf cd3c d1f4 ae3d
00000100: 6b0e 2e3d 31ce 89bd a672 283d a84a 3bbc
00000110: 1bf8 bebb bb01 b03b 3ce9 02bd 4af1 823c
00000120: 837e a4bd 3e61 3b3c a3d8 3ebe 7cf9 043d
00000130: 13b7 763d 6406 d7bc b74a 33bd 52ac 043d
00000140: 3c15 40be 7e03 f43c b84d 9fbd 59f2 bfbd
00000150: 69b5 8ebd 6a33 bf3c bb08 02bd d5e9 02bd
00000160: 04a5 833d b4a0 593d 89d6 acbd 96c1 7f3d
00000170: 65fd fbbc 6701 8aba efab f53c 4ecf e7bd
00000180: 0935 8e3d 7c12 dbbd f6f0 bcbd 66d8 80bc
00000190: 03f6 81bb 43f8 e7ba bfab d63c 1cee 783c
000001a0: 6768 46bc fbd6 56bc bf8d 9cbd c024 4e3c
000001b0: 5d38 15bd 6216 3a3d f8ca afbd 8926 993c
000001c0: b50b 86bd bf8f 51bd ffdd d4bd fc20 4cbe
000001d0: 602f f6bd 2aad c0bd 5934 a1bd f690 773c
000001e0: 45ae 2ebe 960d e13d c4ca a3bd 1525 6e3d
000001f0: fa4e 57bb dbb0 c5bd bd9e 03bc cbf9 8f3d
00000200: 3b58 0eb7 d91e 15bd 5a26 403d bc9c 1f3d
00000210: 0504 033c 966d 283d 1e75 9fbd 9c8a 23bd
00000220: 1ab8 b3bd 809e c9bd 8f93 863c 5ceb 8739
00000230: e38f 453c e6fa 793d feee 933d b858 ebbb
00000240: 2da8 cfbd 354b adbd b754 a2bd e9cc dfb9
00000250: 2f0b 22bc 1b83 cebd ef8d 10be 6489 06be
00000260: d3fc 87bc 6093 da3c ffa6 303d 105e ed3d
00000270: 3aa1 e5bc b485 57bc a976 d73c 9670 d2bd
00000280: 0ea7 bbbc 0eca 233e 6272 71bd 9f48 a5bd
00000290: 3613 03bd 78de a93d f142 b7bd 70b5 c03d
000002a0: 1745 913d 0099 c7bd 26f8 e83b 5b32 d1bc
000002b0: 61a1 6b3d a585 053e 46c0 633d b046 12bc
000002c0: c4e3 b03d b82f eabd 71a6 fbbc 6e9f 17bc
000002d0: 698a 68bd 0be7 6dbd 756c 77bd a9fc cc3c
000002e0: cfb1 2cbc 3b59 62bd 29a6 fe3d f7e4 cfbc
000002f0: 375f b1bd 3c1d 1abd ee05 2c3d 4328 d13c
00000300: 365a 11bd bb07 723d 4e93 883b 1343 6a3d
00000310: 933f 95bd 5551 623d e72d 5c3d 9761 933d
00000320: 46b9 b73d 0112 903d 848f 353d 25fe 9ebc
00000330: e870 0cbd 5204 ddbc 2ec6 46bd a557 8fbc
00000340: 322c a9bc 2d95 fb3c a728 863d a505 2abd
00000350: 2568 d8bb e85d cbbc f9c5 b4bd bd39 0cbd
00000360: 9145 95bd 265b afbb 3825 c7bc ea01 62bd
00000370: 3f85 073c 9696 e0bd 28a2 8e3d 1075 28bd
00000380: 6f0e d33c 8717 4bbd 862a 01bd e17d 82b9
00000390: f647 debd d136 363d 8574 a2bb 0405 fe3c
000003a0: af99 993d 5336 8ebd 5367 933d 61fe 243d
000003b0: a2c8 1b3d 83ad 8e3b d16b 0ebc b178 deb9
000003c0: b755 99bd 8c25 613d 3b78 733c 0614 f63c
000003d0: e3cd 613b 4fdf 7f3c 9db3 5d3d 4c28 a83d
000003e0: daf4 b63c 1782 98bc dcc4 49bd 20f5 0dbd
000003f0: 8e2e c23d 454b 26bd 0bc3 c03d c29e 9ebd

conv2.conv.0.bias f4 [32]
-0.008205627 -0.10662226 0.34620005 0.049428787 0.29815292 0.20634593 0.03824467 0.25275734
0.060440633 0.4061364 -0.41845834 0.6805641 0.20291995 -0.2100625 -0.2428494 0.39906225
-0.41455725 0.028890276 -0.16821215 0.5881161 0.20385885 0.07398801 0.20358874 0.28972527
-0.12201807 -0.17197335 0.15852144 0.06891898 -0.13091353 0.048545584 -0.16754152 -0.15733169
00000000: e570 06bc c55c dabd 2241 b13e d775 4a3d
00000010: 80a7 983e 594c 533e 71a6 1c3d 6969 813e
00000020: 9990 773d 1cf1 cf3e 2c40 d6be 7339 2e3f
00000030: 3fca 4f3e a01a 57be 83ad 78be e351 cc3e
00000040: d940 d4be 4dab ec3c ce3f 2cbe c78e 163f
00000050: 60c0 503e 0787 973d 9179 503e df56 943e
00000060: 9ce4 f9bd c819 30be 7253 223e 6525 8d3d
00000070: 320e 06be bcd7 463d 0190 2bbe 8f1b 21be

conv2.conv.2.weight f4 [32, 32, 3, 3]
-0.12783858 -0.08370307 -0.035408497 -0.08054588 -0.00078452204 0.043089326 -0.009056301 0.052340627
0.0133073 -0.013037179 -0.044100657 0.012834067 0.049374633 0.044436194 -0.0016001789 -0.0456838
0.008551486 -0.036248002 -0.11384194 -0.044188503 -0.07410521 -0.053902138 -0.003677276 -0.031067029
0.038737517 -0.0067556896 0.07677878 0.031968452 0.0453702 -0.08571898 0.018079357 -0.021408372
-0.0231262 0.06566661 0.028775815 0.07222183 -0.008056318 -0.022692386 -0.026631122 -0.024668124
-0.0947545 0.043415003 -0.032794967 -0.022758804 -0.036200903 -0.041688703 0.009456569 -0.05783237
0.034752928 -0.04644049 0.01121447 0.038508635 0.07853096 0.0521529 -0.18689378 -0.07131233
-0.2321664 -0.053490866 -0.010098436 0.0084910905 -0.062406853 -0.002599934 -0.2354213 0.078306966
-0.07977368 0.06668812 0.07648266 0.021873925 -0.08065852 0.07352943 0.046438232 -0.0134311775
0.04204898 -0.043445725 0.03792716 -0.011703073 -0.05709282 -0.026213307 0.041467562 0.03611802
0.06179613 0.053541224 -0.10454285 0.04711972 -0.010891278 0.030994862 -0.046406407 0.035676852
0.047461115 -0.09020768 -0.012173049 0.037456755 0.011520445 0.05120518 -0.007055333 -0.035377536
0.024045328 -0.0037101158 -0.047784287 0.08598025 0.028838169 0.061392803 -0.056528386 -0.036321934
0.046140894 -0.05319426 -0.13790594 0.0042814394 0.007756322 -0.034529228 -0.04751844 -0.02760113
-0.044216186 -0.020977637 0.07677107 0.055425216 0.048035447 0.0026475126 0.039633267 0.05221936
-0.011769923 -0.08974599 -0.009279842 -0.08605253 -0.059362773 -0.052962173 0.027627569 -0.13905367
0.013918065 -0.048578944 -0.06872958 -0.028443405 0.02830793 0.054511566 0.005560792 -0.032934144
0.032274053 -0.057056602 0.05019122 -0.056393523 -0.019334195 0.023101727 0.0769227 0.04953136
-0.0032357546 -0.014695813 -0.016659157 -0.064687096 -0.017951867 0.011849663 -0.034748852 -0.01678462
0.010064164 -0.0019167069 -0.07690229 -0.09917433 -0.013133824 -0.02204313 -0.030880842 -0.0005691829
-0.018273123 -0.03207584 -0.07294278 -0.071752325 0.032136604 -0.031858493 0.10981408 -0.03549593
0.024813354 -0.015917543 -0.05476394 -0.013124465 -0.09393468 0.02668409 -0.012425648 -0.029585533
-0.046263874 -0.014487308 0.016243579 -0.043363217 -0.054487858 -0.046994556 0.03857757 -0.047780965
-0.035075217 0.0991732 -0.070373856 -0.056583982 0.015900034 -0.073809184 -0.006752076 0.05156719
-0.02936127 0.077228285 0.04810509 -0.044377472 0.02703437 0.007948531 0.03444337 -0.08164525
0.04589296 -0.046992175 -0.0043288013 0.074438706 -0.09163791 0.04427707 0.07307633 -0.049259927
-0.07260695 -0.024532499 -0.0011311448 -0.0044708583 -0.020104205 0.010644242 0.018947845 0.022490218
-0.01476728 0.026235148 -0.01379934 -0.09223383 0.021668853 -0.04153623 0.031840805 0.011540145
-0.010594181 0.06080986 -0.04639032 0.00166712 0.0036351362 0.036387015 -0.021161782 0.020630399
-0.048565608 -0.021985667 -0.014423788 0.0023311337 0.0046880064 0.020058883 0.015511171 -0.026297936
-0.16179258 -0.042431597 -0.003702766 0.023630368 0.05533135 -0.048910487 -0.05410555 0.05438368
-0.0072395257 0.048793487 0.00031243896 0.045717422 0.031694524 -0.060855158 0.023322199 -0.094616964
00000000: 1ee8 02be 846c abbd 8008 11bd 3df5 a4bd
00000010: 62a8 4dba 6f7e 303d e160 14bc 2063 563d
00000020: dd06 5a3c e499 55bc e4a2 34bd fb45 523c
00000030: 0e3d 4a3d ba02 363d 18bd d1ba f01e 3bbd
00000040: 881b 0c3c c978 14bd f725 e9bd 01ff 34bd
00000050: 79c4 97bd 7dc8 5cbd 74fe 70bb 4880 febc
00000060: 3bab 1e3d d55e ddbb 313e 9d3d 5af1 023d
00000070: 1ad6 393d 6f8d afbd 291b 943c 9c60 afbc
00000080: 2873 bdbc 377c 863d 42bb eb3c 0ae9 933d
00000090: a6fe 03bc 62e5 b9bc 8329 dabc ce14 cabc
000000a0: a60e c2bd eed3 313d 0454 06bd ac70 babc
000000b0: 6647 14bd c6c1 2abd baef 1a3c a3e1 6cbd
000000c0: 1659 0e3d 6238 3ebd e5bc 373c 3bbb 1d3d
000000d0: d7d4 a03d 479e 553d 1561 3fbe 330c 92bd
000000e0: 07bd 6dbe 3d19 5bbd e973 25bc 371e 0b3c
000000f0: 549e 7fbd a863 2abb 4812 71be 675f a03d
00000100: 6260 a3bd c893 883d f1a2 9c3d f230 b33c
00000110: 4b30 a5bd 9996 963d 0436 3e3d 710e 5cbc
00000120: 8d3b 2c3d 25f4 31bd 8259 1b3d 3fbe 3fbc
00000130: 29da 69bd 4abd d6bc e4d9 293d 7df0 133d
00000140: f01d 7d3d 0b4e 5b3d 901a d6bd 9c00 413d
00000150: 5571 32bc f0e8 fd3c a514 3ebd e421 123d
00000160: 9666 423d cebe b8bd 7871 47bc 416c 193d
00000170: 40c0 3c3c 86bc 513d 6c30 e7bb 09e8 10bd
00000180: b5fa c43c 6a25 73bb 75b9 43bd 6a16 b03d
00000190: 063e ec3c 0577 7b3d 4f8a 67bd 4fc6 14bd
000001a0: 3cfe 3c3d 39e2 59bd 3737 0dbe 514b 8c3b
000001b0: bf28 fe3b 856e 0dbd b2a2 42bd c41b e2bc
000001c0: 081c 35bd 4bd9 abbc 273a 9d3d 8d05 633d
000001d0: d1c0 443d e481 2d3b 7e56 223d f8e3 553d
000001e0: a3d6 40bc bfcc b7bd 7a0a 18bc 4f3c b0bd
000001f0: 6126 73bd ddee 58bd 3653 e23c 1664 0ebe
00000200: 9808 643c b7fa 46bd 18c2 8cbd 2502 e9bc
00000210: 08e6 e73c 8547 5f3d 4e37 b63b f4e5 06bd
00000220: cc31 043d 2fb4 69bd 4f95 4d3d e5fc 66bd
00000230: bf62 9ebc d53f bd3c a689 9d3d 65e1 4a3d
00000240: f40e 54bb b5c6 70bc c978 88bc ab7a 84bd
00000250: cb0f 93bc 1725 423c d054 0ebd e67f 89bc
00000260: 2ae4 243c 033a fbba f37e 9dbd e91b cbbd
00000270: 402f 57bc cb93 b4bc d2f9 fcbc 3835 15ba
00000280: 84b1 95bc f561 03bd 0663 95bd e2f2 92bd
00000290: aca1 033d 0d7e 02bd 34e6 e03d 2e64 11bd
000002a0: 6045 cb3c 8265 82bc 2750 60bd ff07 57bc
000002b0: d360 c0bd 9898 da3c f294 4bbc 5c5d f2bc
000002c0: 307f 3dbd 2d5c 6dbc 4111 853c a19d 31bd
000002d0: a92e 5fbd 5d7d 40bd 8403 1e3d f9b5 43bd
000002e0: 08ab 0fbd 521b cb3d 2b20 90bd 9bc4 67bd
000002f0: ca40 823c 4529 97bd 8540 ddbb 1e38 533d
00000300: 0c87 f0bc dd29 9e3d d809 453d 27c5 35bd
00000310: 2f77 dd3c 8e3a 023c 7e14 0d3d a035 a7bd
00000320: 42fa 3b3d de7a 40bd 9ed8 8dbb 5273 983d
00000330: a8ac bbbd df5b 353d 0ba9 953d c7c4 49bd
00000340: f4b2 94bd 61f8 c8bc ec42 94ba 4780 92bb
00000350: 93b1 a4bc 3065 2e3c 8338 9b3c 683d b83c
00000360: 76f2 71bc 18eb d63c a116 62bc 17e5 bcbd
00000370: e182 b13c e521 2abd 816b 023d e012 3d3c
00000380: 3793 2dbc c213 793d c703 3ebd 4483 da3a
00000390: 773b 6e3b 8d0a 153d 795b adbc 1501 a93c
000003a0: bbec 46bd 491b b4bc c051 6cbc efc5 183b
000003b0: d99d 993b 8752 a43c 9122 7e3c c56e d7bc
000003c0: f4ac 25be c1cc 2dbd 1baa 72bb 7994 c13c
000003d0: 20a3 623d 5d56 48bd c89d 5dbd 6cc1 5e3d
000003e0: 8b39 edbb aedb 473d d9ce a339 3142 3b3d
000003f0: 1ed2 013d 4243 79bd 320e bf3c 8ac6 c1bd

conv2.conv.2.bias f4 [32]
0.2761214 -0.158777 -0.26634452 0.18753305 0.042565856 -0.31205988 0.37013292 -0.2998924
0.3115199 -0.15085313 -0.33629173 0.4177122 -0.083716415 0.016519452 0.27428558 -0.066047825
-0.33475116 -0.33933756 -0.020004533 -0.31877452 0.22073212 -0.28939927 0.1675124 0.18983057
0.23801291 0.07595399 -0.46498653 0.1136969 0.15120515 0.116317876 -0.1446681 -0.34853685
00000000: c95f 8d3e 7096 22be 4f5e 88be aa08 403e
00000010: 8959 2e3d 50c6 9fbe 1082 bd3e 7f8b 99be
00000020: 897f 9f3e 3e79 1abe 6e2e acbe 60de d53e
00000030: 8373 abbd cd53 873c 296f 8c3e 1544 87bd
00000040: 8164 abbe a7bd adbe 8ce0 a3bc 6a36 a3be
00000050: 9a07 623e 242c 94be 5f88 2b3e f262 423e
00000060: a8b9 733e c48d 9b3d b712 eebe ecd9 e83d
00000070: 86d5 1a3e 1138 ee3d e023 14be 6c73 b2be

conv3.conv.0.weight f4 [64, 32, 3, 3]
-0.07760941 -0.05067928 0.033184804 0.008698233 0.028849117 0.0018305118 0.01213315 0.014746443
-0.048677325 -0.025423251 -0.11828595 0.031287957 -0.030226776 -0.08352696 0.01310412 0.060903598
0.008566073 0.23665965 -0.011153234 0.03269689 -0.002608108 -0.036632 0.03507604 -0.039154693
-0.017374288 0.01969362 0.033563823 0.04170253 -0.062511735 -0.0021724075 -0.030782813 0.033066474
0.0062962817 -0.045449693 0.0062091574 -0.014107856 0.025080783 0.044871893 0.021327617 -0.006540487
-0.06135101 -0.041105665 -0.06812374 -0.044169456 -0.09385135 0.05139429 -0.048777968 0.0520057
0.07132553 0.023426568 0.012465948 0.05444742 -0.041151185 0.030930504 0.099105924 -0.004051365
-0.018579772 0.08034839 -0.021637533 -0.00033895718 0.011516471 0.01809056 0.02946262 0.015877085
0.10168721 0.029791191 0.01116951 -0.025038118 -0.030501382 0.03328888 -0.028775344 0.0025696077
-0.022486202 -0.028029202 -0.06117427 0.057242215 0.0582754 0.01374466 -0.041347593 0.028645549
-0.018915143 -0.04096575 -0.048282962 -0.029899295 -0.018010678 -0.033705667 0.06976444 -0.121963985
-0.03329836 -0.07335343 -0.008048428 0.014458026 -0.06242857 0.030695181 -0.06642303 -0.09542246
0.014676278 0.018222408 -0.036921524 0.04378451 0.04406402 -0.05161611 -0.09239595 0.01712896
0.008882494 -0.04016037 0.0033380394 0.012691409 0.06612809 -0.018088166 0.03909357 -0.05518288
0.036204424 0.021971425 -0.020987213 -0.07513284 0.003115371 0.11839804 0.07727178 0.041650955
0.007583675 0.035316236 0.030974839 -0.02982792 -0.020245858 -0.0850991 0.06504063 -0.0046542664
0.041770164 -0.0029331322 -0.003589963 0.0123745855 -0.011866388 -0.039940603 -0.027762337 0.05947933
-0.03456391 0.023923928 0.04734785 -0.0059452252 -0.0043522525 -0.007650983 -0.026471857 -0.04613376
-0.029139658 0.03385364 0.0007418182 0.047945697 -0.014047213 -0.09050736 0.025899468 -0.026868055
0.0019192413 0.084204964 0.055389136 0.0026642818 -0.07843986 -0.053904098 0.014681938 0.032825466
-0.038988307 0.050333135 -0.06547986 -0.013270588 0.004261228 0.0031877938 -0.035545453 0.046549037
-0.025951127 0.046266023 0.058451407 0.08123039 0.018717915 0.052985556 0.055487286 0.032135457
0.05086969 -0.002013024 0.015746988 0.004372444 0.080739476 0.0235103 -0.02225179 0.044315003
0.03433577 -0.027587257 -0.037500825 0.018006576 0.03256618 0.030151775 -0.0013938508 0.06605662
-0.0266364 -0.040453363 0.05935662 0.0077410545 0.013601442 -0.014767114 -0.06231193 -0.058271818
0.0076303324 -0.047507044 0.058494836 0.013581693 -0.1117558 -0.025114425 -0.07788188 0.05351152
0.025328418 -0.07189152 -0.010433029 0.035200294 -0.045415875 0.025768029 -0.0112580815 -0.08725277
-0.13419463 0.014194339 0.0125088645 -0.03279758 -0.046595197 -0.03959234 -0.04189487 -0.022071607
0.075694665 0.033406705 0.0001983892 -0.05853829 0.01385743 0.01910365 0.004219766 0.048813473
-0.09478257 -0.037802923 0.034969147 -0.004104504 -0.011313356 0.0070012957 0.010217295 -0.0063814325
0.037424657 0.044850934 -0.022937138 -0.048353195 -0.0709496 0.0033550432 -0.09178401 -0.041573618
-0.015996657 -0.07140583 -0.044264205 -0.06114094 -0.09341164 -0.04928815 -0.09962762 -0.095110066
00000000: aff1 9ebd 1495 4fbd caec 073d 0983 0e3c
00000010: fc54 ec3c c9ed ef3a 1fca 463c 119b 713c
00000020: e061 47bd 6c44 d0bc e73f f2bd cd27 003d
00000030: 259e f7bc 2f10 abbd aab2 563c 0d76 793d
00000040: b758 0c3c e856 723e 0ebc 36bc 2ded 053d
00000050: cbec 2abb 700b 16bd e5ab 0f3d ac60 20bd
00000060: 8654 8ebc 8454 a13c 387a 093d 46d0 2a3d
00000070: 2706 80bd f35e 0ebb 3d2c fcbc b670 073d
00000080: 0a51 ce3b 7529 3abd 3076 cb3b a324 67bc
00000090: 3776 cd3c 97cb 373d 41b7 ae3c 9551 d6bb
000000a0: 324b 7bbd 6a5e 28bd 7684 8bbd 08eb 34bd
000000b0: 2335 c0bd d282 523d 68cb 47bd ee03 553d
000000c0: 1f13 923d 13e9 bf3c fa3d 4c3c 4204 5f3d
000000d0: 258e 28bd f861 fd3c 0cf8 ca3d 50c1 84bb
000000e0: 9b34 98bc b28d a43d 3241 b1bc 10b6 b1b9
000000f0: 95af 3c3c a732 943c 985b f13c a910 823c
00000100: 6241 d03d a80c f43c 5200 373c bd1c cdbc
00000110: 09de f9bc ec59 083d 45ba ebbc dd66 283b
00000120: fc34 b8bc 7f9d e5bc df91 7abd d076 6a3d
00000130: 30b2 6e3d 4831 613c 185c 29bd 12aa ea3c
00000140: eef3 9abc b4cb 27bd 5bc4 45bd 5eef f4bc
00000150: 218b 93bc f40e 0abd a9e0 8e3d 41c8 f9bd
00000160: dc63 08bd 533a 96bd 8edd 03bc 5be1 6c3c
00000170: 1ab5 7fbd 7674 fb3c cc08 88bd da6c c3bd
00000180: c674 703c 2947 953c 063b 17bd 6357 333d
00000190: 797c 343d 6a6b 53bd 163a bdbd 0852 8c3c
000001a0: e187 113c 337f 24bd 02c3 5a3b a1ef 4f3c
000001b0: 2a6e 873d a22d 94bc 9420 203d 7207 62bd
000001c0: 174b 143d 6bfd b33c 60ed abbc 3fdf 99bd
000001d0: 412b 4c3b ac7a f23d ab40 9e3d 319a 2a3d
000001e0: 7a80 f83b c2a7 103d f2be fd3c af59 f4bc
000001f0: a4da a5bc 7048 aebd 0634 853d d182 98bb
00000200: 3117 2b3d cb39 40bb 9645 6bbb c6be 4a3c
00000210: 3d6b 42bc c298 23bd d76d e3bc 99a0 733d
00000220: e392 0dbd 1dfc c33c d2ef 413d 2ad0 c2bb
00000230: 579d 8ebb 19b5 fabb 82db d8bc c1f6 3cbd
00000240: 4bb6 eebc 1daa 0a3d 9476 423a b562 443d
00000250: 4826 66bc ec5b b9bd 1f2b d43c 651a dcbc
00000260: 0d8f fb3a a773 ac3d b8df 623d 3b9b 2e3b
00000270: 14a5 a0bd 8bca 5cbd 838c 703c ff73 063d
00000280: 34b2 1fbd 1e2a 4e3d 4e1a 86bd e16c 59bc
00000290: c5a1 8b3b 4eea 503b 1c98 11bd 34aa 3e3d
000002a0: 7597 d4bc 7181 3d3d be6a 6f3d 1e5c a63d
000002b0: 5056 993c 6207 593d a346 633d 78a0 033d
000002c0: bc5c 503d f0ec 03bb d4ff 803c b846 8f3b
000002d0: bd5a a53d ac98 c03c 6349 b6bc a683 353d
000002e0: aaa3 0c3d acfe e1bc 779a 19bd 8782 933c
000002f0: 1d64 053d db00 f73c dfb1 b6ba b148 873d
00000300: 9434 dabc 6db2 25bd ed1f 733d aca8 fd3b
00000310: 95d8 5e3c c4f1 71bc cb3a 7fbd 6eae 6ebd
00000320: de07 fa3b bf96 42bd 4898 6f3d c085 5e3c
00000330: 3ae0 e4bd c4bc cdbc 8980 9fbd e52e 5b3d
00000340: 8b7d cf3c dc3b 93bd 4cef 2abc 2f2e 103d
00000350: ff05 3abd 7917 d33c d173 38bc 95b1 b2bd
00000360: 516a 09be 5f8f 683c fbf1 4c3c c156 06bd
00000370: 9bda 3ebd 942b 22bd f599 2bbd 84cf b4bc
00000380: ce05 9b3d 78d5 083d b206 5039 d9c5 6fbd
00000390: 460a 633c 427f 9c3c f645 8a3b a3f0 473d
000003a0: 5d1d c2bd 3dd7 1abd cf3b 0f3d 137f 86bb
000003b0: a85b 39bc 206b e53b 7166 273c 561b d1bb
000003c0: 994a 193d 9db5 373d aae6 bbbc 000e 46bd
000003d0: 064e 91bd 49e0 5b3b 41f9 bbbd 1949 2abd
000003e0: 6c0b 83bc 383d 92bd 624e 35bd ec6e 7abd
000003f0: 9a4e bfbd 5fe2 49bd 9109 ccbd 11c9 c2bd

conv3.conv.0.bias f4 [64]
-0.26645273 0.40172526 -0.04715601 -0.15595901 -0.08571148 0.25751686 0.13276479 -0.0132503025
0.16640235 -0.1536915 -0.025963983 0.14429909 -0.037512247 0.37738392 -0.063035905 -0.21252742
-0.07915954 0.25638875 -0.01882457 -0.10184688 0.12501287 0.0032521242 0.14269608 -0.20115294
-0.068594754 -0.15511593 0.28500193 0.23434655 0.1688685 0.30286625 0.058892395 -0.35969764
0.23905611 -0.22331016 0.23113549 0.0434395 0.05752021 0.2885763 0.097444065 -0.06366372
-0.0113202995 0.01557765 -0.33173066 0.0039535547 0.15652691 -0.27865615 -0.27401406 0.3569163
0.12133884 -0.36606038 -0.3200202 0.39065376 0.21294054 -0.09401573 0.3460212 -0.15558232
-0.12920254 0.035570126 -0.0040454203 0.24232566 0.3011866 -0.12283781 0.21008447 0.29804754
00000000: 7e6c 88be efae cd3e a926 41bd b8b3 1fbe
00000010: 8089 afbd 40d9 833e 7ef3 073e cc17 59bc
00000020: 6165 2a3e 4e61 1dbe 6bb2 d4bc 24c3 133e
00000030: 71a6 19bd 7738 c13e f818 81bd caa0 59be
00000040: 661e a2bd 6345 833e fc35 9abc 1995 d0bd
00000050: 6003 003e 9721 553b ec1e 123e 09fb 4dbe
00000060: 687b 8cbd b6d6 1ebe c6eb 913e 8bf8 6f3e
00000070: ddeb 2c3e 4911 9b3e 2739 713d 4a2a b8be
00000080: 20cb 743e 6bab 64be c8ae 6c3e 9eed 313d
00000090: 509a 6b3d 46c0 933e c190 c73d 2062 82bd
000000a0: c778 39bc 6639 7f3c 9ad8 a9be d28c 813b
000000b0: 9748 203e 05ac 8ebe 924b 8cbe bcbd b63e
000000c0: 7f80 f83d 446c bbbe b0d9 a3be c503 c83e
000000d0: 160d 5a3e 528b c0bd b129 b13e f950 1fbe
000000e0: ac4d 04be fbb1 113d 728f 84bb 3824 783e
000000f0: 2135 9a3e 6492 fbbd 6220 573e b099 983e

conv3.conv.2.weight f4 [64, 64, 3, 3]
0.03799715 -0.034579284 0.07116784 -0.015052812 -0.03175119 0.048233777 -0.0318438 0.015593238
0.010147461 -0.06925643 0.017026687 -0.077058576 -0.0388793 -0.03580547 0.01756487 -0.17841117
-0.15480109 -0.08327743 0.0207007 -0.02867973 -0.010996524 -0.012519403 0.016756939 -0.008706674
0.0055648964 0.0068770014 -0.094898224 0.016349679 0.034103975 0.044833772 -0.0038266906 -0.0030159524
0.06361635 0.0035575752 -0.011093393 0.014035206 -0.06592246 -0.030328088 -0.008764497 -0.034922387
0.0086915875 0.026719393 -0.04354702 -0.017299559 -0.10093767 -0.01372875 -0.024173325 -0.017121164
-0.060292862 -0.026338838 -0.02541444 -0.09748957 -0.042648423 -0.060064904 -0.1627078 -0.10476543
-0.08429228 -0.10700419 -0.014588697 -0.021321198 -0.007760548 -0.015299982 0.011645936 -0.09807562
-0.05788088 0.008087856 -0.046331495 -0.046388473 0.01245792 -0.15461437 0.0011802671 0.030875359
0.010974838 0.031702574 -0.014376812 -0.08782934 0.043106426 0.07295729 -0.011557746 -0.039813668
0.020168362 0.023782298 -0.0011688187 0.050951526 0.0015503315 -0.023045642 0.06257643 -0.005864827
-0.124083504 0.010173275 -0.10597416 -0.043248165 0.03558511 -0.14168166 -0.07037431 0.031027088
-0.22287582 -0.13595812 -0.060075916 0.080036104 0.12173292 0.07150545 0.047585726 0.05585954
5.1359966e-05 -0.03009204 -0.028212551 -0.001908147 0.007762045 0.029307324 0.017026598 0.053504314
0.017591009 0.038859952 0.025711646 0.057202812 0.015514496 -0.18800864 -0.0822415 -0.119205326
-0.07693184 -0.06754316 -0.049435407 -0.058781788 -0.06788485 -0.11783402 -0.10711655 -0.034899905
0.008221835 -0.07451792 -0.08718649 0.028656758 -0.103952765 -0.10290034 -0.023870485 0.011861478
0.04753109 0.052993894 -0.021096775 0.06510335 0.086340226 0.005323643 0.059582703 0.113869056
-0.09978422 -0.06998095 -0.075160325 -0.029557027 -0.044400528 -0.042928886 -0.036719427 -0.07047787
-0.08098775 -0.051194165 0.0040424895 0.018362489 -0.07267808 -0.028762966 -0.007847656 -0.15610026
0.027175367 -0.003052893 -0.09822222 -0.043222602 -0.050404303 -0.1169576 -0.09570386 -0.115507476
-0.05579517 -0.1068861 -0.085284725 -0.023919651 -0.0009363434 0.015181383 -0.022843909 0.00010935223
0.0854247 -0.048771728 -0.051718116 0.0020614897 -0.06932598 -0.06892346 0.005112717 -0.1293839
-0.03414852 -0.055259205 -0.13772285 -0.030809376 -0.03577084 -0.023749541 -0.027020982 -0.01050658
-0.028137658 0.03980068 -0.01684635 0.02197213 0.009105983 0.04327346 -0.109860405 -0.06139934
-0.13090673 0.046507392 -0.05597045 -0.11095487 -0.05380649 -0.1099032 -0.15806802 0.05038609
0.026180908 -0.0066956626 0.001704956 0.01604722 -0.03266069 0.044191804 0.00023485725 -0.022445934
0.050666455 0.042069282 0.046304967 0.026364928 0.052473046 -0.0137196155 0.001041506 -0.029248003
-0.025727002 -0.022640947 -0.028968044 -0.007840624 -0.10994198 -0.08731098 -0.00364516 -0.008711886
-0.015202094 -0.018085245 -0.058643695 0.061831024 0.06154562 -0.0026002626 0.0034040008 0.038137555
0.008751869 -0.07788685 -0.0059828865 -0.015121648 -0.035001986 -0.0041816933 0.021150747 -0.009114726
0.01603636 0.05204465 0.025040414 -0.027830247 -0.07274194 -0.043169323 0.030326303 -0.05271865
00000000: e6a2 1b3d 02a3 0dbd 72c0 913d 12a0 76bc
00000010: 890d 02bd c890 453d a56e 02bd c87a 7f3c
00000020: 8941 263c 51d6 8dbd 8d7b 8b3c e3d0 9dbd
00000030: e73f 1fbd c2a8 12bd 34e4 8f3c 6bb1 36be
00000040: 2d84 1ebe 5b8d aabd 8494 a93c c1f1 eabc
00000050: c42a 34bc 2f1e 4dbc d945 893c 70a6 0ebc
00000060: bc59 b63b 7858 e13b 005a c2bd c3ef 853c
00000070: 9cb0 0b3d 9ea3 373d 37c9 7abb 49a7 45bb
00000080: 4a49 823d 3526 693b 10c1 35bc ecf3 653c
00000090: 5b02 87bd 9c72 f8bc f798 0fbc c70a 0fbd
000000a0: 2967 0e3c a1e2 da3c 5c5e 32bd ceb7 8dbc
000000b0: 69b8 cebd 8dee 60bc 2307 c6bc af41 8cbc
000000c0: a6f5 76bd 8cc4 d7bc f231 d0bc 9da8 c7bd
000000d0: 1db0 2ebd 9e06 76bd e09c 26be 428f d6bd
000000e0: 6ea1 acbd 0325 dbbd 6e05 6fbc cba9 aebc
000000f0: 324c febb c7ac 7abc 99ce 3e3c dfdb c8bd
00000100: 8014 6dbd ed82 043c 18c6 3dbd d701 3ebd
00000110: 4e1c 4c3c 3b53 1ebe 31b3 9a3a 52ee fc3c
00000120: cfcf 333c 8fda 013d b88c 6bbc dedf b3bd
00000130: 5d90 303d a26a 953d b35c 3dbc a813 23bd
00000140: 1f38 a53c 18d3 c23c 0c33 99ba 8cb2 503d
00000150: 7e34 cb3a 37ca bcbc 1228 803d bc2d c0bb
00000160: 7e1f febd cfad 263c fb08 d9bd fd24 31bd
00000170: b1c1 113d ff14 11be 6820 90bd 852c fe3c
00000180: 8f39 64be 9b38 0bbe 2a12 76bd f8e9 a33d
00000190: 1c4f f93d 7371 923d 40e9 423d f9cc 643d
000001a0: 586b 5738 9583 f6bc 021e e7bc ca1a faba
000001b0: c158 fe3b ea15 f03c 5d7b 8b3c 5727 5b3d
000001c0: 051b 903c 9d2b 1f3d 3ba1 d23c 7f4d 6a3d
000001d0: 8330 7e3c 5685 40be 3b6e a8bd ec21 f4bd
000001e0: 718e 9dbd 1154 8abd c87c 4abd 2cc5 70bd
000001f0: 3607 8bbd f652 f1bd ec5f dbbd 34f3 0ebd
00000200: e0b4 063c da9c 98bd d58e b2bd 94c1 ea3c
00000210: 30e5 d4bd 6abd d2bd 098c c3bc a556 423c
00000220: f6af 423d 2010 593d 25d3 acbc e854 853d
00000230: 25d3 b03d f471 ae3b fe0c 743d 2e34 e93d
00000240: ab5b ccbd 2c52 8fbd a8ed 99bd 9421 f2bc
00000250: 54dd 35bd 33d6 2fbd 1c67 16bd b456 90bd
00000260: e8dc a5bd f9b0 51bd dc76 843b ee6c 963c
00000270: 3fd8 94bd 50a0 ebbc 7493 00bc bfd8 1fbe
00000280: e09e de3c 0c13 48bb bb28 c9bd 2f0a 31bd
00000290: be74 4ebd 7787 efbd 6300 c4bd 2f8f ecbd
000002a0: 7a89 64bd 19e7 dabd c2a9 aebd 25f3 c3bc
000002b0: f174 75ba 56bb 783c 2623 bbbc 0854 e538
000002c0: 25f3 ae3d ddc4 47bd 60d6 53bd 0f1a 073b
000002d0: c8fa 8dbd be27 8dbd 9488 a73b 377d 04be
000002e0: 52df 0bbd 7a57 62bd 3807 0dbe f263 fcbc
000002f0: 7284 12bd 668e c2bc 1b5b ddbc ca23 2cbc
00000300: f280 e6bc 0a06 233d 5b01 8abc e5fe b33c
00000310: 4331 153c 833f 313d 7efe e0bd e07d 7bbd
00000320: 6a0c 06be 897e 3e3d 4541 65bd 4f3c e3bd
00000330: 3264 5cbd ee14 e1bd 95dc 21be a561 4e3d
00000340: 5879 d63c 4a67 dbbb d578 df3a 7675 833c
00000350: 37c7 05bd 7702 353d 0344 7639 89e0 b7bc
00000360: a187 4f3d d750 2c3d 47aa 3d3d 43fb d73c
00000370: faed 563d 3dc8 60bc 2483 883a 8299 efbc
00000380: 6fc1 d2bc 8279 b9bc 644e edbc f675 00bc
00000390: 4329 e1bd 19d0 b2bd a3e3 6ebb 4cbc 0ebc
000003a0: 3412 79bc 8227 94bc 5f34 70bd 8742 7d3d
000003b0: 4317 7c3d 2b69 2abb a815 5f3b 2036 1c3d
000003c0: 0064 0f3c 2483 9fbd 170c c4bb cac0 77bc
000003d0: 3e5e 0fbd 9606 89bb 5544 ad3c ef55 15bc
000003e0: af5e 833c c52c 553d 8e21 cd3c 42fc e3bc
000003f0: baf9 94bd 51d2 30bd de6e f83c 83ef 57bd

conv3.conv.2.bias f4 [64]
0.06039835 -0.22237533 -0.103133716 -0.22488697 -0.2933456 0.16934422 0.06166617 -0.09146056
0.23201434 -0.004428653 0.27914366 0.3344602 0.23569733 0.0478342 -0.038452625 -0.18016002
-0.0607063 -0.058303267 0.060748205 0.19111557 0.13539582 0.06385106 0.31446332 -0.36429656
0.12867476 -0.07304762 0.22427775 0.040025864 0.050217092 0.2845919 0.16611834 -0.06929991
-0.13062397 0.12759174 0.10012794 0.042390298 -0.17464535 0.33212122 0.31443942 0.33058664
0.34639448 -0.12292466 -0.10199789 -0.27286825 -0.022835268 -0.07193469 0.24040727 -0.06848364
0.062332727 0.049645435 0.020330265 0.3346384 0.17061199 0.30110106 0.026725065 0.22717685
0.1999209 0.22057244 0.37179714 -0.33410242 -0.015971554 -0.17570055 0.12209249 0.02908802
00000000: 4364 773d 5cb6 63be c537 d3bd c548 66be
00000010: 6531 96be 9268 2d3e aa95 7c3d ad4f bbbd
00000020: 2b95 6d3e 3c1e 91bb ebeb 8e3e 5e3e ab3e
00000030: a45a 713e cbed 433d 8080 1dbd de7b 38be
00000040: 2ba7 78bd 68cf 6ebd 1cd3 783d cdb3 433e
00000050: 34a5 0a3e 58c4 823d 5601 a13e 1485 babe
00000060: 51c3 033e fe99 95bd 11a9 653e 29f2 233d
00000070: 70b0 4d3d 08b6 913e ed1a 2a3e 1ced 8dbd
00000080: 4ac2 05be 69a7 023e e10f cd3d 73a1 2d3d
00000090: 3bd6 32be cb0b aa3e 34fe a03e a742 a93e
000000a0: 9e5a b13e edbf fbbd 45e4 d0bd 63b5 8bbe
000000b0: 0711 bbbc 7f52 93bd 532d 763e 2741 8cbd
000000c0: 9a50 7f3d 0359 4b3d a88b a63c b955 ab3e
000000d0: e9b4 2e3e eb29 9a3e 86ee da3c 0ca1 683e
000000e0: 10b8 4c3e bedd 613e 325c be3e 790f abbe
000000f0: c7d6 82bc d8ea 33be a10b fa3d 004a ee3c

up4.weight f4 [64, 32, 2, 2]
0.069607094 0.10583627 0.023595896 0.047132008 0.028573042 0.051725417 -0.0051995423 -0.064216934
-0.0484002 -0.16094384 0.22341463 0.1773423 -0.07094666 0.012753118 -0.010270789 -0.08692655
-0.07946239 0.17179278 0.038047258 0.21388033 -0.040357072 -0.014786097 0.06962075 0.021722741
-0.14530118 -0.19713709 -0.09154093 -0.19405478 -0.09134678 -0.08109404 -0.05405739 -0.047808997
0.036297113 0.06237756 0.10002122 0.16237375 -0.06411005 -0.0061083604 0.0065725115 -0.1437029
0.018997114 0.03173451 0.019199817 -0.08197905 -0.055401694 0.020955719 -0.074178696 -0.020487513
-0.22050299 -0.20142321 -0.13647635 -0.21777782 0.085029654 0.0787907 0.050066397 0.047838897
-0.09619024 0.0016101439 -0.044428043 -0.08464504 0.07102229 0.028126614 0.03879504 0.05278148
0.014436473 0.048143853 0.010402518 0.09158743 0.1450211 0.14219163 0.16074733 0.12142866
-0.08888569 0.08063391 0.018936967 0.07300853 -0.11937176 -0.12537144 0.017037014 -0.031553376
-0.057579953 -0.02669232 0.0006197545 -0.015108141 -0.015526387 0.027195912 0.03566374 0.12476456
-0.010607533 0.060072124 -0.063216545 -0.021410018 -0.17524815 0.009389407 -0.16721006 -0.081939526
-0.18074156 -0.15595594 -0.01026201 -0.14618403 -0.14663981 -0.0114337625 -0.12546568 -0.114156134
0.012913836 0.06482212 0.1266832 0.033912722 -0.05675929 -0.04905008 -0.067052014 -0.06790598
0.03436755 -0.03462318 -0.094435856 -0.04258233 -0.14061593 -0.14239053 -0.16565378 -0.15722892
0.16378681 0.17002417 0.078550726 0.07719 0.05744107 0.15295419 0.21716994 0.17548855
0.093195364 -0.071473524 -0.04513915 0.08540359 0.06620645 0.12238693 0.06812667 -0.031521227
-0.05924443 0.06126012 0.12353963 0.19455244 0.007909694 -0.022529664 0.025765758 0.0810959
-0.32059032 -0.18868724 -0.15864034 -0.08970987 -0.09092974 -0.041109145 -0.01919608 -0.013555032
-0.064395785 0.0032777735 -0.035622858 0.09163001 -0.0045668627 -0.048883945 -0.053387906 -0.1118053
0.017154215 -0.025977401 0.0056948885 -0.004510542 0.009166008 -0.056423582 0.09221629 -0.004642199
-0.07610564 -0.049758784 0.01673052 -0.007352882 -0.06917592 -0.09183466 0.005396461 -0.04322925
-0.1408691 -0.039795008 -0.07111855 -0.090936616 0.020411586 -0.06535585 0.022553988 0.0067302748
-0.09499384 0.034091335 -0.064021744 -0.020354582 -0.040528893 0.023056189 0.036161326 -0.082300454
0.04647776 0.025898581 -0.059058 0.032849874 0.09289823 0.09085476 0.10142397 0.041056484
-0.058984995 0.025826808 0.004697324 -0.111887924 0.022980537 0.031609613 0.037718274 0.021311073
-0.0666903 0.05363516 0.039758477 -0.004263213 0.04745319 0.03669041 0.06834742 0.0013891073
0.055040844 0.1259863 0.07659004 0.07232617 -0.06464805 -0.09666703 0.036916737 0.023508847
0.023415843 -0.052815218 0.00940161 0.016605314 -0.06657455 0.044611458 -0.059233457 -0.07315184
0.048920564 -0.106346816 0.115637645 -0.024109818 -0.09506697 -0.13112468 0.002542151 -0.06149366
-0.014542332 0.0843185 0.05684309 0.08706573 -0.096104294 -0.11182714 -0.012761763 -0.048897374
0.037564088 0.12025647 0.09376248 0.09987274 0.050705463 0.008413181 0.029153904 0.09146905
00000000: 2a8e 8e3d b0c0 d83d 2e4c c13c 7e0d 413d
00000010: 0312 ea3c 08de 533d ec60 aabb 2b84 83bd
00000020: 4a3f 46bd 76ce 24be cec6 643e 3899 353e
00000030: 7c4c 91bd 74f2 503c d046 28bc 8c06 b2bd
00000040: 2dbd a2bd 72ea 2f3e 71d7 1b3d 7203 5b3e
00000050: 754d 25bd 6341 72bc 5395 8e3d e4f3 b13c
00000060: d5c9 14be 4ede 49be d079 bbbd 4cb6 46be
00000070: 0514 bbbd a214 a6bd 486b 5dbd 5ed3 43bd
00000080: 48ac 143d 9d7f 7f3d edd7 cc3d 4e45 263e
00000090: 214c 83bd a428 c8bb 395e d73b da26 13be
000000a0: d69f 9b3c 0cfc 013d ef48 9d3c a2e4 a7bd
000000b0: e3ec 62bd 54ab ab3c 00eb 97bd 6ed5 a7bc
000000c0: 89cb 61be e341 4ebe 75c0 0bbe 2601 5fbe
000000d0: 0724 ae3d 055d a13d 6c12 4d3d b8f2 433d
000000e0: 63ff c4bd 770b d33a 2efa 35bd 615a adbd
000000f0: 2274 913d c969 e63c 8ce7 1e3d 6531 583d
00000100: f586 6c3c 7d32 453d 536f 2a3c 3192 bb3d
00000110: 6980 143e af9a 113e f39a 243e 97af f83d
00000120: b309 b6bd 6423 a53d b321 9b3c 7f85 953d
00000130: 2e79 f4bd 5f61 00be 3591 8b3c 1d3e 01bd
00000140: f5d8 6bbd daa9 dabc 0577 223a 2388 77bc
00000150: 6362 7ebc f6c9 de3c 2414 123d 9084 ff3d
00000160: 38cb 2dbc 300e 763d ad77 81bd 1064 afbc
00000170: 4074 33be 07d6 193c 1d39 2bbe e9cf a7bd
00000180: 5114 39be eab2 1fbe fd21 28bc 44b1 15be
00000190: bf28 16be ad54 3bbc 137a 00be b1ca e9bd
000001a0: 8e94 533c 76c1 843d 3eb9 013e 11e8 0a3d
000001b0: 6e7c 68bd bde8 48bd 9152 89bd 4a12 8bbd
000001c0: fdc4 0c3d 09d1 0dbd 9667 c1bd cf6a 2ebd
000001d0: 9ffd 0fbe d3ce 11be 25a1 29be 9e00 21be
000001e0: bbb7 273e d11a 2e3e 34df a03d ca15 9e3d
000001f0: 5447 6b3d 06a0 1c3e cc61 5e3e 45b3 333e
00000200: 36dd be3d b660 92bd d4e3 38bd 14e8 ae3d
00000210: 3f97 873d 00a6 fa3d ff85 8b3d 671c 01bd
00000220: 4aaa 72bd e4eb 7a3d 5802 fd3d c138 473e
00000230: a997 013c 2190 b8bc b612 d33c 9b15 a63d
00000240: 6a24 a4be 3a37 41be 9d72 22be cfb9 b7bd
00000250: 5f39 babd 1062 28bd 1941 9dbc ed15 5ebc
00000260: f0e1 83bd eacf 563b 46e9 11bd 84a8 bb3d
00000270: 9fa5 95bb 883a 48bd 47ad 5abd 2dfa e4bd
00000280: ff86 8c3c 8fce d4bc 309c ba3b 2bcd 93bb
00000290: 062d 163c 6a1c 67bd e5db bc3d 961d 98bb
000002a0: 46dd 9bbd decf 4bbd 720e 893c 72f0 f0bb
000002b0: 1bac 8dbd cf13 bcbd ccd4 b03b 2711 31bd
000002c0: fd3f 10be 1700 23bd 9aa6 91bd fa3c babd
000002d0: 3336 a73c 4ad9 85bd 24c3 b83c a389 dc3b
000002e0: 218c c2bd 5ba3 0b3d d51d 83bd a7be a6bc
000002f0: a001 26bd 55e0 bc3c e61d 143d 248d a8bd
00000300: 775f 3e3d 4329 d43c cde6 71bd 978d 063d
00000310: 6d41 be3d 0f12 ba3d 5fb7 cf3d d82a 283d
00000320: 409a 71bd be92 d33c 02ec 993b 7f25 e5bd
00000330: ae41 bc3c 1579 013d 7a7e 1a3d 8f94 ae3c
00000340: ed94 88bd 8bb0 5b3d c9d9 223d 6cb2 8bbb
00000350: 475e 423d af48 163d bbf9 8b3d b512 b63a
00000360: 8272 613d 8d02 013e 3ddb 9c3d be1f 943d
00000370: 3266 84bd 5df9 c5bd 0136 173d a095 c03c
00000380: 95d2 bf3c c554 58bd 3609 1a3c de07 883c
00000390: 3d58 88bd 81ba 363d c89e 72bd a2d0 95bd
000003a0: ee60 483d 5ccc d9bd 6ed3 ec3d f481 c5bc
000003b0: 79b2 c2bd 8c45 06be 379a 263b c7e0 7bbd
000003c0: f642 6ebc 2daf ac3d 4dd4 683d 844f b23d
000003d0: 54d2 c4bd a105 e5bd b716 51bc 9d48 48bd
000003e0: cddc 193d 0649 f63d 8b06 c03d 148a cc3d
000003f0: 88b0 4f3d 70d7 093c 2bd4 ee3c 2054 bb3d

up4.bias f4 [32]
0.09832714 -0.27471545 -0.026048396 -0.23543325 -0.07252166 -0.24524212 0.030555286 0.32600415
-0.108054236 -0.09007889 0.23510404 -0.16816935 -0.0017497754 0.23214796 0.2570819 0.21362749
-0.34236285 -0.07305192 0.27265388 -0.21763913 -0.28383476 0.14379093 -0.3865105 0.14938039
-0.16458666 0.23490757 -0.04672918 0.34586844 -0.15441315 -0.00939305 -0.09088424 0.23901129
00000000: bd5f c93d 81a7 8cbe 7263 d5bc 6a15 71be
00000010: 3c86 94bd c020 7bbe 144f fa3c 04ea a63e
00000020: 8a4b ddbd 487b b8bd 1dbf 703e 9634 2cbe
00000030: b858 e5ba 32b8 6d3e 3da0 833e 2ac1 5a3e
00000040: 2f4a afbe 3f9c 95bd 4a99 8b3e cbdc 5ebe
00000050: ca52 91be ee3d 133e b4e4 c5be 2cf7 183e
00000060: 6889 28be 9c8b 703e 1967 3fbd ab15 b13e
00000070: 7b1e 1ebe 4fe5 19bc 8421 babd 60bf 743e
